FARMX APP/assets/models/croprecommendation.tflite (tflite, 15556 bytes, 8 tensors)

sequential_2/dense_5/BiasAdd/ReadVariableOp/resource f4 [16]
00000000: 39ac 8fbc 7593 633d 5592 62bb 0000 0000
00000010: aa53 a8bc bade 0cbc b4d5 89bc 6ee7 a4bc
00000020: c3e6 dc3c 14c1 aebc 0000 0000 b0c2 403c
00000030: a0e4 863d cac8 44bc ed5b 36bd 3830 91bc
-0.017538177 0.055560548 -0.0034572084 0.0 -0.020547707 -0.008598024 -0.016825534 -0.020129886
0.026965505 -0.021332301 0.0 0.011765167 0.065865755 -0.0120107625 -0.04452126 -0.017723188

sequential_2/dense_6/BiasAdd/ReadVariableOp/resource f4 [32]
00000000: 0000 0000 efc1 57bd 2fff 9bbd 36d3 74bc
00000010: 2492 073d b390 a03c 0000 0000 abb5 ddbc
00000020: 4f39 64bd 0000 0000 c815 ddbc 0000 0000
00000030: 0000 0000 4d7c cdbc ac54 013c 3813 b9ba
00000040: 5a8c d2bc 0157 c0bb 479f cf3c ace7 093d
00000050: 9b88 783c e7c6 f03d 4a4f c8bc 5216 74bc
00000060: 4416 84bd 22da 0bbd 841f 463d d831 7b3c
00000070: c944 113e b98f 4d3c bc13 1fbd a7af a1bc
0.0 -0.052675184 -0.07617032 -0.014942935 0.033098355 0.019600248 0.0 -0.027064165
-0.055718716 0.0 -0.026987925 0.0 0.0 -0.025083685 0.0078937225 -0.0014120108
-0.02570169 -0.0058697467 0.025344504 0.033668205 0.015169288 0.117566876 -0.02445187 -0.0148979
-0.06449559 -0.034143575 0.0483699 0.015331708 0.14186396 0.012546473 -0.03883718 -0.019737078

sequential_2/dense_7/BiasAdd/ReadVariableOp/resource f4 [48]
00000000: 751e a43d 1dca da3c df23 18bc 0000 0000
00000010: 477b f6bc 258d 59bd 3cad cb3d 0106 a03c
00000020: e41f 4ebc 6636 7a3d a44d 873c b479 b2bc
00000030: dfa4 45bd b409 98bb b0ec ab3b 7de2 c6bd
00000040: 6544 0bbd 6a18 903d ee4d 983d 8574 8ebc
00000050: ad35 fc3c f44b 4fbd c9f3 a7bd 0000 0000
00000060: 2058 1a3b d299 88bd f4c7 8c3d a5d0 23bd
00000070: d437 90bd b501 a0bd 760e 4b3d e4e8 983c
00000080: 6061 d43b 02a5 813d 4af7 ecbc 9d71 8abc
00000090: 22f5 1a3d 0000 0000 9564 99bd 87f3 c3bc
000000a0: 1f9c 9d3c 36ed 82bc 0000 0000 c262 c2bb
000000b0: b72d f4bc f1a7 e43c 7362 773c f9d7 3cbd
0.08013622 0.026707703 -0.009285896 0.0 -0.03008808 -0.05311312 0.09945151 0.019534113
-0.0125808455 0.061087035 0.016516514 -0.021786548 -0.048252936 -0.0046398286 0.005246721 -0.09711168
-0.034000773 0.070359066 0.07436739 -0.017389545 0.030787313 -0.050609544 -0.08200795 0.0
0.0023551062 -0.06669964 0.068740755 -0.0399939 -0.07041898 -0.078128256 0.049574338 0.018665738
0.0064813346 0.06330301 -0.02892651 -0.016899878 0.037831433 0.0 -0.074898876 -0.023919834
0.019239483 -0.015982252 0.0 -0.005932183 -0.029806955 0.027912112 0.015099156 -0.046104405

sequential_2/dense_8/BiasAdd/ReadVariableOp/resource f4 [22]
00000000: e20d a1b9 312f 7abd 703f f33c 35d2 3a3c
00000010: 2a03 663c ac4d 7bbc 4e5a f2ba c2c2 8abc
00000020: 58ea 343d 1003 af3d e233 3e3d 6129 9b3d
00000030: cea9 2a3e b903 673d 09b4 2fbd e90b 77bb
00000040: 8def 453c 8426 97bd b6e1 283d a209 a23c
00000050: 8738 2fbd 7e52 713d
-0.00030718656 -0.06108016 0.029693335 0.011402656 0.01403884 -0.015338343 -0.0018490048 -0.01693857
0.0441688 0.08545506 0.046436198 0.07576252 0.16666338 0.056400035 -0.042896304 -0.0037696308
0.012081039 -0.07380393 0.04123088 0.019779984 -0.042778518 0.05891656

sequential_2/dense_5/MatMul f4 [16, 7]
00000000: 25af 813e 524a 82be bf60 553e 3efa e03e
00000010: 21a9 b93e 1521 92be d968 5d3e c26e 87bd
00000020: 2fb3 91be 30c5 e73e a04c 98be f4d5 59bd
00000030: eae3 d7be cb51 adbe 2037 5dbe 0252 3f3e
00000040: 6bbe fb3e badd 1e3d e3ce aabe 49cd a6bd
00000050: 0910 023e e079 1bbe b8e0 a8be 5c99 223e
00000060: adc6 d5be 2d4f babe 20bd c9be 1036 fc3d
00000070: 1a0f b63d ccfb ffbe 44c6 7fbd 3f44 a2be
00000080: e178 ccbe e017 d1be 98a2 d73e 4e3f d8be
00000090: 6e8f 773e bca1 963e 704b 9cbe fb5b a4bd
000000a0: 8fc2 c93e 9849 fa3e c04f e03e 7150 36bc
000000b0: c02b e7bd ea07 80be 27ae 94be 0ab2 de3e
000000c0: 5989 d33e c111 bdbc 65b1 b53e 0d98 e2be
000000d0: 9e20 d33e 5365 bf3e 5063 98bd 6240 89be
000000e0: 10fc bfbe d9a9 e33e db6b e43e 78dc e23e
000000f0: 33c6 043f 09b2 b83e 27f2 e8be e3ed ccbe
00000100: 49eb 263e 33ec d43d 5239 3e3e 6c92 e33e
00000110: 4662 173e 80bb 493e c0b6 1f3c 24cc 97bd
00000120: d89a de3d d005 493e 749c 8fbe 0008 6f3d
00000130: fcb4 7cbe 3590 f7bd 3262 d03e b8c2 e5be
00000140: f25c 01be b962 d3be c518 eb3e 17d7 2b3e
00000150: ee0b b4be cf7b 553e 7651 a13e c803 02bc
00000160: 2648 82be a842 7abc dd69 a83d 5df6 9bbe
00000170: adec 993e 32c6 a5be 4179 3c3b 03f2 cdbe
00000180: 43fb cc3e ceaa e7bd a5f4 bf3e 0fb3 55bd
00000190: 8031 af3e 083b 1bbe 7379 ed3d 90fc 1f3e
000001a0: 6314 89be baf7 d8be 36a8 b13d 4d65 a83e
000001b0: 8b60 473e d5c9 2e3e b428 f03e ee9a 4b3e
0.25328937 -0.25447327 0.20837687 0.4394092 0.36261848 -0.28540865 0.21622027 -0.06612922
-0.2845702 0.4526763 -0.2974596 -0.053182557 -0.42166072 -0.33851466 -0.2160306 0.18683627
0.49168715 0.038785674 -0.33360967 -0.08144624 0.1270143 -0.1518321 -0.32983947 0.15878814
-0.4175314 -0.3638853 -0.39402103 0.12314999 0.08889599 -0.49996793 -0.06244494 -0.31692693
-0.39935973 -0.40838528 0.42116237 -0.42235798 0.24175808 0.2942027 -0.30526304 -0.080253564
0.3940625 0.48884273 0.43810844 -0.011127577 -0.112876415 -0.25006038 -0.29039118 0.43495208
0.41315725 -0.023079755 0.35486904 -0.4425663 0.41235822 0.37381992 -0.07440817 -0.26806933
-0.37496996 0.4446552 0.44613537 0.4430883 0.5186493 0.3607333 -0.45497248 -0.40025243
0.16300692 0.10396614 0.18576553 0.4444765 0.14783582 0.19700432 0.009748161 -0.074119836
0.10869378 0.19631124 -0.28049052 0.05835724 -0.24678415 -0.12088052 0.40699917 -0.4487512
-0.12633112 -0.41286257 0.45917335 0.16781269 -0.35165352 0.2084801 0.31507462 -0.007935472
-0.2544567 -0.015274681 0.08223317 -0.30461398 0.30063382 -0.32377774 0.0028758796 -0.40223703
0.40035447 -0.11311875 0.37491336 -0.052172717 0.34217453 -0.15159237 0.1159543 0.15623689
-0.26773366 -0.423765 0.08674662 0.32889786 0.19470422 0.1706918 0.46906054 0.1988332

sequential_2/dense_6/MatMul f4 [32, 16]
00000000: 6063 a1be 5832 01be 574b b3be 982d 9d3d
00000010: 7a92 0cbe e875 073e 0538 b2be 4a29 1e3e
00000020: 6976 43be 663c afbe 31d8 86be 4f78 af3e
00000030: 4536 a4be 1c7f 89bd a89e 8b3d 0065 7a3d
00000040: b309 96bd bbed a9be 42b4 223e d42e a1be
00000050: fa26 723e 5ffb 603e 5933 8d3e 3691 743e
00000060: c580 bb3d f324 843d 4006 d33d 95e6 d83c
00000070: e128 8a3c 1a21 cc3b 4a36 39be 84d2 453e
00000080: c8e1 bcbd 6943 d93d b493 a03e 7e60 073e
00000090: 5fdd 053e 0d8c 90bd dd77 133e 44ba 80be
000000a0: f49d e13d 9056 0f3e 140c a63d 2820 5f3e
000000b0: 47a3 5cbe 1fdd 28be 1077 083e 8701 f93c
000000c0: 61c5 2f3e 8371 febd abbd 893e 7c65 04be
000000d0: 5ee5 393e df58 64be 5dac 9fbe 8d0f 133e
000000e0: fd09 7dbe 0913 90be 3dce a33e 9df2 8dbe
000000f0: 52de 183e 00b7 6abb 5f10 ec3d 5863 8dbe
00000100: 1d9e 843e 78eb 3b3d 58e7 a5be 7977 4bbe
00000110: 7fae 053e d9ce 7d3c 1059 56be e1e4 f13d
00000120: 7183 74be 1e0a e4bd dc9b 01be ecec 74be
00000130: 4142 12bd d4ff e93d 0eaf 6fbe d7a1 853e
00000140: 8acc cd3d b810 b73d 0316 a3be 5085 14bd
00000150: 6e20 b73d a1f4 e1bd 3837 833e 69a2 2b3e
00000160: 6216 abbe 60d7 0c3e 40ed 58be e950 e7bd
00000170: 134f 1fbe 53df 023e 1b42 2bbd 9868 623d
00000180: 4602 14be 00d8 bf3b 38ef bdbd 626e 73be
00000190: e569 803e 035e 22be 50ca 66bd 405c 86be
000001a0: dda3 93be 908a 193d 96e2 2c3e 0dc2 32be
000001b0: 14b8 0d3e 4ea7 d9bd 4de9 8fbe 7e3c a0be
000001c0: 703c 5b3e a95b cc3d 009f 113e 206b a73c
000001d0: b99a b2be 8d8f 87be 36cb 81be 8fcb 123e
000001e0: 0789 233e 37c7 63bd 6e57 3a3e b43f 99be
000001f0: e615 de3d 7260 a83b a236 493d c26f 4a3e
00000200: 2869 c2be ceb5 27be 15e9 2f3e f0b4 8ebd
00000210: c0a7 54bc 26e5 6fbe ab64 49bc 0b8b 413e
00000220: 58ad ff3d 684a a6bd 1845 43bd 174c 9cbe
00000230: 1275 8fbd 78b7 a1bd 802d ba3d b19e 3d3e
00000240: f22c 80be 8fe6 903e 575c 85be 1ed8 e2bd
00000250: ba8b 23be c4d3 80bd 0c46 83bd d0c9 5bbe
00000260: 87ff 81be d508 5cbe 06b1 283e 445b 8cbe
00000270: 0847 6ebe 74b2 e93d 95e1 b2be 8928 8d3e
00000280: 91dd a53e 3951 9bbe f9f6 443d 587a 0e3d
00000290: 5b92 4a3e 81f6 6c3e 3a73 983d fb40 19be
000002a0: dd88 3fbe d964 e9bd dfd2 a73e 3cd8 523e
000002b0: 4859 113e b4e6 febd a949 4dbd a4a8 b53d
000002c0: f99c 96be f6d6 0fbe 6857 0bbd 1eb7 213e
000002d0: 70d6 55bd d80d b3be c05d e03d c99e a5be
000002e0: 40a6 e13d fe58 44be 6abb 55be 7723 a0be
000002f0: 4044 19be 181a b43d e706 9c3e 6202 083e
00000300: e2ac 98be b09c a43d 0be7 b33e 6ff0 21be
00000310: 23f8 89be 30a0 10bd 9a72 8cbe b857 2a3d
00000320: 2b5b 36be 10ef fbbc 50b7 883d caf2 adbe
00000330: b453 46be 8746 8a3e b6d4 133e debd 96be
00000340: 6710 7fbd 5a03 54be f990 c53e e0d1 3abc
00000350: 0a04 6bbe 610e fc3d 8e53 c23d b502 5bbc
00000360: 1e5b a7be 86b8 05bd fa4a 17be 1b3e 3d3b
00000370: bfe1 773e dfbc 763e 2bc7 7fbe 420f 443e
00000380: f796 0c3e 2709 dd3e 46cd 32be 0f91 04be
00000390: 93b5 243e b493 873e 3eae 633e 0079 473e
000003a0: 506c 8b3e 4559 1f3e 86a6 87be f6ce fbbd
000003b0: 5edb 54bd 49c3 823e 289d 95bb 5d8a a03e
000003c0: dc12 84be 43db 3f3e ff35 1e3e c71b 80be
000003d0: 36fe b13e d72f 3abe 4e62 633e b680 ab3e
000003e0: ebc2 cb3d 9818 a43e 3996 983e 1afb a1bc
000003f0: f15a 0bbe 0216 20be f74c 61bd 567f 953e
-0.3152113 -0.12616861 -0.35018417 0.07674712 -0.13727751 0.13228571 -0.34808365 0.15445438
-0.19088139 -0.34225768 -0.26336816 0.34271476 -0.32072654 -0.06713697 0.06817371 0.061131477
-0.07326069 -0.33189186 0.15889075 -0.3148104 0.23647681 0.2197089 0.27578238 0.23883519
0.0915542 0.0645236 0.103039265 0.026477138 0.016865196 0.006229532 -0.18087116 0.19318587
-0.09222752 0.106085606 0.3136269 0.13220403 0.13072728 -0.070579626 0.14401193 -0.2514211
0.11016455 0.13997865 0.081077725 0.2178961 -0.2154666 -0.16490601 0.13326669 0.030396236
0.17165138 -0.124239944 0.26902518 -0.12929338 0.18153903 -0.22299527 -0.3118619 0.14361401
-0.24710841 -0.28139523 0.31993285 -0.27724162 0.14928558 -0.0035814643 0.1152656 -0.27614856
0.2590188 0.045878857 -0.32403064 -0.19869794 0.13054846 0.015491211 -0.20932412 0.11811233
-0.23878266 -0.11134742 -0.12657112 -0.23918504 -0.035707716 0.114257485 -0.23406622 0.26100037
0.10048778 0.08938736 -0.3185273 -0.03625995 0.08941732 -0.110329874 0.25628066 0.16761173
-0.33415514 0.13754034 -0.21184254 -0.11294729 -0.15557508 0.12780504 -0.04181109 0.05527553
-0.14453992 0.0058546066 -0.09274143 -0.23772576 0.2508079 -0.15856175 -0.056345284 -0.26242256
-0.28835955 0.03748566 0.1688331 -0.17456837 0.13839751 -0.10627614 -0.28107682 -0.31296152
0.21409774 0.0997842 0.1422081 0.020436823 -0.3488367 -0.26476708 -0.2535035 0.14335464
0.1597024 -0.055609908 0.18197414 -0.29931414 0.108440205 0.0051384503 0.049124368 0.19769195
-0.37970853 -0.16377947 0.17178757 -0.06968105 -0.012979448 -0.23427257 -0.0122920675 0.18900697
0.124842346 -0.081196606 -0.047673315 -0.30526802 -0.07004751 -0.07896322 0.0909071 0.18517567
-0.2503429 0.28300902 -0.26047012 -0.11076377 -0.1597127 -0.06290391 -0.06409845 -0.21463704
-0.25390264 -0.21487744 0.16473779 -0.2741338 -0.23269284 0.1141099 -0.3493773 0.27569988
0.32395604 -0.30335405 0.048087094 0.034784645 0.19782393 0.23140909 0.07443853 -0.14966194
-0.18704553 -0.11396188 0.3277807 0.205903 0.14194214 -0.12446347 -0.050119076 0.08870056
-0.29416636 -0.14046845 -0.034018904 0.1579251 -0.052206457 -0.349715 0.109553814 -0.32347706
0.11018038 -0.19174573 -0.20872274 -0.31277058 -0.14967442 0.087940395 0.30474016 0.13282159
-0.298194 0.08037698 0.3513721 -0.15814374 -0.26947126 -0.035309017 -0.27431184 0.04158756
-0.17808215 -0.030753642 0.06675589 -0.33974296 -0.19367868 0.27006933 0.14436612 -0.29441732
-0.062271502 -0.20704404 0.38587168 -0.011402577 -0.2295076 0.1230743 0.09488593 -0.013367345
-0.32686704 -0.03264668 -0.14774695 0.002887613 0.24207209 0.24095486 -0.2497832 0.19146445
0.13729464 0.43171045 -0.17461118 -0.1294596 0.1608489 0.26479876 0.22234437 0.19479752
0.27231073 0.15561397 -0.26494235 -0.12295334 -0.051967017 0.25539616 -0.0045658536 0.31355563
-0.2579564 0.18735985 0.15450285 -0.25021192 0.3476426 -0.18182312 0.22205469 0.33496636
0.09949287 0.32050014 0.2980211 -0.019773055 -0.1360891 -0.15633395 -0.05500504 0.29198712

sequential_2/dense_7/MatMul f4 [48, 32]
00000000: 10fd 8b3c 5e35 cabd 0c24 82be a6fd 2e3e
00000010: 1066 e73d 1407 893e 40a9 73bd a823 3c3e
00000020: f6fd 52be cea7 373e d9af 5bbe 1856 153e
00000030: 5e4a 563e d2c5 113d bdaf 1bbd d13d c6bd
00000040: 6f61 483d 2f08 483e 3ff3 5d3d fd86 b4bd
00000050: f6ae 90bb e5f0 453e b77e 313e bdaa 213e
00000060: de1f 243b eab3 c1bd 4ba9 283e 3b75 0b3e
00000070: 1459 793e 2a46 5a3e f2a6 a33a ddf2 c43d
00000080: 981f 353e b8ce f8bd 31c9 83be 91a8 62be
00000090: 0a44 433e c44e d6bd 00b4 e43c d69f 87be
000000a0: 6e4b 513d 8afc fbbd 7ecb 38be 9007 6f3e
000000b0: ecc1 e33d 3a5c b4bc 3064 a93c 44cc 583e
000000c0: f67a 17be 05aa d3bb 366f 3c3e 6c1e d33d
000000d0: 9749 093e b568 82be bd11 cf3d fd96 2ebe
000000e0: 5dbb 78be 14ff 2c3d 4a87 293e 70b8 813e
000000f0: f063 8d3d ec13 263e f5e0 ecbd 903f 843e
00000100: 8a18 1cbe 4e97 7bbe 9e9f d43d acdc 343d
00000110: c8ce 3ebe 1f61 7f3e f02d 433d 563b ad3d
00000120: c52d 00be b8d1 103e f21e ba3c 601f 043d
00000130: c01e b23c 410f 3bbb 9329 403d a1ca 13be
00000140: 567b 853e 2209 15be 5410 d6bd 1e4f fe3d
00000150: 2710 ba3c 50d2 a039 6aa0 1abe 648a 513c
00000160: dade 0b3d 3535 25be 916d 6e3c 07eb 683e
00000170: a717 6bbd c40f f73d ea76 ddbd b461 1e3e
00000180: 3cfd f53d a6d8 83bd 0819 603e c4c6 87be
00000190: 7c9f 33be 08c1 943d 8c26 9b3d eeed 8bbe
000001a0: f8ab 393d 909c 26be 0024 a439 f037 73bd
000001b0: e793 85be 88b0 e73d 5241 10be 8606 bfbd
000001c0: 5f56 89be 626e 80bd d26a 153e c06b c63b
000001d0: 24f0 873e 4f28 54be 6e0e dcbd 88aa 15be
000001e0: 78e6 26bd 0c3f b6bd d0de e6bc af9b 5fbe
000001f0: 5566 09be 0c73 78bd e86f 6bbe d6e2 86be
00000200: 5c4e 2abe fd28 f93d cdc3 81be 7e22 1bbe
00000210: 153b 81be 3ff9 88be d641 033e cae7 1e3e
00000220: a0fa 4a3e 984b 30bd 7ea0 073e cb05 18be
00000230: 622b 5f3e f203 143e 7d68 f93c 0f12 38be
00000240: 2426 d4bd ec77 c53c 1e23 9e3c d416 6dbd
00000250: d0bc 84be 42f8 9f3b 96df 75be aa21 263e
00000260: 72c6 a6bd efd2 563e 2e97 00bd cb42 2e3e
00000270: b091 5a3e a731 373e 64d9 e43d a0a7 3bbe
00000280: a439 763e af7b 2a3e 021b aebd f343 733e
00000290: b5b1 3fbe 006d 03be 9db1 7cbe 9524 273e
000002a0: 6f9c 653e acc9 45bd 6603 02bd 0837 b23d
000002b0: 04da e8bd 899d f13d 9040 1bbe 3d24 52bd
000002c0: 8600 ee3d 5db2 983d d045 4cbc 9c00 03be
000002d0: 879c 7e3e d572 d23c 1d80 a63d 9e29 823e
000002e0: a40d 043d 465c f93d bf63 2a3e ba66 aa3d
000002f0: 795a 79be f789 8cbe c8d2 943d aec6 f93c
00000300: 06d4 5c3e 1b78 36be f083 75be a4b9 0f3e
00000310: b0c9 50be 8d80 01be b2ee 1a3e 93fe 21be
00000320: d08a 3c3e fcd7 84be 2b27 22bd 0860 68be
00000330: b8b6 d4bd 3574 f4bc 9300 913e f12e 783e
00000340: 70c5 5ebe 1a2e 00be 9ce0 96be 975f 9dbd
00000350: 9360 e83d 31ba eabc 8076 4ebe 2e3e 1ebe
00000360: 06c9 94be c763 903e f1a0 afbd 6984 54be
00000370: 4f59 91bc c01a 8e3e 3a94 053a 9ede e0bd
00000380: ccda aabd 73c5 633c 0027 24be 4e9c 4cbe
00000390: 26b3 8a3e a7c2 a63b 18de 3e3e 12f6 8d3e
000003a0: fa57 9bbe 8e45 4a3e a219 7bbe fe90 0a3e
000003b0: ace5 853d 7b6b 903e 63ac 41be 4a8d 603e
000003c0: 4e30 183e 8746 b23c ccb3 c63c 668c b8bb
000003d0: 753a 8f3c 6489 963d c380 893c d8c7 94bd
000003e0: a883 aa3d 146c dfbd 99b5 01bd 15c3 7dbe
000003f0: 61a6 573d d5bb 7bbd 6789 89bc 257b 143e
0.017088443 -0.0987346 -0.25418127 0.17088947 0.11298764 0.26763213 -0.05948758 0.18372977
-0.20604691 0.17935106 -0.214538 0.14583623 0.20926806 0.035589047 -0.038009394 -0.09679759
0.048921045 0.19534372 0.054187056 -0.088148095 -0.004415388 0.19330175 0.17333494 0.15787788
0.0025043408 -0.09458144 0.1647083 0.13618939 0.24350387 0.21315828 0.0012485667 0.09616635
0.17687833 -0.121488035 -0.25739434 -0.22134615 0.19068924 -0.10464242 0.027917862 -0.26489133
0.051097326 -0.123040274 -0.18046376 0.23342729 0.11120972 -0.022016633 0.020677656 0.21171671
-0.14793 -0.006459477 0.18401799 0.10308537 0.13406979 -0.2547051 0.10110805 -0.17049785
-0.24290223 0.04223545 0.16555515 0.25336027 0.06903827 0.16218537 -0.11566345 0.25829744
-0.15243736 -0.24569437 0.10382007 0.04415576 -0.18633568 0.24939393 0.04765123 0.08458583
-0.1251746 0.14142501 0.022719834 0.032256484 0.021743178 -0.0028543028 0.04691465 -0.14432766
0.2607066 -0.14554265 -0.10452333 0.12417434 0.02271278 0.00030674273 -0.15100256 0.012789343
0.034148075 -0.16133578 0.01455249 0.22745906 -0.057395604 0.12063554 -0.10813697 0.15466958
0.12011191 -0.06437807 0.21884549 -0.26518834 -0.17541307 0.0726338 0.075757116 -0.27329963
0.045330018 -0.16270661 0.0003130734 -0.059379518 -0.26089403 0.113129675 -0.14087418 -0.09327416
-0.26823708 -0.06271054 0.1459153 0.0060553253 0.265504 -0.20718502 -0.1074494 -0.14615834
-0.040747136 -0.08898744 -0.028182417 -0.21836732 -0.13417943 -0.060656592 -0.22991908 -0.26344937
-0.16631454 0.12166021 -0.25344697 -0.15149876 -0.2524039 -0.2675266 0.12818083 0.15518108
0.19822168 -0.04304084 0.13244817 -0.1484596 0.21793893 0.1445463 0.030445332 -0.17975639
-0.10358837 0.024105035 0.019303855 -0.0578831 -0.25925303 0.0048818896 -0.24011073 0.1622378
-0.08143319 0.20978902 -0.031394176 0.17017667 0.21344638 0.17890035 0.111742765 -0.18325663
0.24045426 0.16648744 -0.08501245 0.2375639 -0.18720134 -0.12834549 -0.24677129 0.16322549
0.22422956 -0.048288032 -0.031741522 0.08701903 -0.11369708 0.117976256 -0.15161347 -0.05130409
0.116211936 0.07455895 -0.0124678165 -0.12793201 0.24864398 0.025689522 0.081299044 0.25422376
0.03223957 0.12175803 0.16639613 0.08320375 -0.24350919 -0.2744901 0.07266766 0.030490246
0.21565256 -0.17819254 -0.23976111 0.1403566 -0.20389438 -0.12646694 0.15130118 -0.15819769
0.18412328 -0.25946033 -0.039588135 -0.22692883 -0.10386413 -0.029840568 0.2832075 0.24236657
-0.21755004 -0.12517586 -0.29468238 -0.07684248 0.11346545 -0.028653236 -0.20162392 -0.15453407
-0.2905962 0.28201124 -0.08575619 -0.20753635 -0.017742781 0.27754784 0.0005095635 -0.10979961
-0.083425134 0.013902056 -0.16030502 -0.199815 0.27089804 0.0050891223 0.1863941 0.277268
-0.30340558 0.19753096 -0.24521497 0.13531873 0.06537947 0.28207 -0.18913417 0.21928898
0.14862177 0.021762146 0.024255656 -0.005631971 0.01748393 0.07350424 0.016785031 -0.0726468
0.08325893 -0.10909286 -0.031667326 -0.24781449 0.052648906 -0.061458427 -0.016789151 0.14500101

sequential_2/dense_8/MatMul f4 [22, 48]
00000000: 6b30 b33d 9c39 c8bd 49c8 f8bd 3c51 933e
00000010: 239a 0bbe 9a8a 09bd b13d 6cbe 68c8 9bbe
00000020: 84f5 43bd e5d8 edbd 91f8 783e 3cef 783e
00000030: 73e9 82be 4de9 0bbe a631 de3d 6a08 5cbd
00000040: 9489 953e 3c8e bebe ba93 b6bd ee98 81be
00000050: c5b9 e7bd 3a04 a0be 1533 06bb 9459 2abe
00000060: 85a8 8e3c 2f70 3ebe 4de7 9dbe 485c 973e
00000070: 2c2c 373d 8178 813e a2f0 c63d 9771 ab3d
00000080: a019 37be 3f61 483d 91e5 dbbd 5710 21be
00000090: 9f4e 4ebd b0ec 81be b5e9 f13d f4ef f0bd
000000a0: 035b 26be 98de 933e 2890 6ebe 407d a53c
000000b0: f413 743d 15e6 933e 138b 8dbd 36cb 26be
000000c0: 451f eebe b113 8fbe b32c 7fbd 1860 803d
000000d0: 832a 7abe 43b2 033e eff1 033e 2e3e a4be
000000e0: b2d9 583e 66d0 d5bd c5e9 853e 7d84 813e
000000f0: 0227 79bd 5baa ea3c c8f1 b6be 3274 413d
00000100: fa6c 8fbe 5451 b6be cd3b a6bd 2e63 55be
00000110: c831 59be e357 69bd fd09 7d3e b796 7dbe
00000120: 570d 4a3d 4838 c1be b947 a6be 3565 d73d
00000130: d9fd 1e3e 7d62 e0bd 402a 4bbd 20e3 9b3e
00000140: 3ed0 d23d 4268 31be b913 51be fcf3 cf3d
00000150: 7032 f33d 882e 4d3d 3e86 33be 5b66 abbd
00000160: b7c7 223e 2d4d 0d3e 0f55 2abe aab3 cdbd
00000170: ba84 5ebe 45c0 993d 53d7 74bd 6789 4f3e
00000180: 83ae b2bd 04e5 603e cfdf 8ebe 546f 5bbd
00000190: 0b6f 38be 21ea 4a3d 83c3 7e3e dfc9 d1be
000001a0: 6208 4e3e 4dd0 63be a675 b3bd 1c97 cd3d
000001b0: 10d6 7abe af30 4bbe 4e8b 363e 0251 ad3e
000001c0: cf2a 8fbe caa7 95bd 86ca 66bd e700 9b3e
000001d0: abd3 65be 752d 1fbd 0cce b63d ec83 8e3e
000001e0: b8b6 e2bd 01bb 5dbd 237b 23be 1dfe 1e3e
000001f0: f005 bdbd 1884 343e 8f5b edbe ea7f b5be
00000200: a5d2 1ebe 2a7a 083e 669f 94be 5db3 b1bd
00000210: 02a9 ac3e 8062 2b3b e909 d73d c08f 8abe
00000220: 8b86 66bd 8617 263d 061c 2e3e 7f87 67bd
00000230: 623f a5be ca05 803e 9555 2fbd 008e 47be
00000240: 4005 0fbd f2e2 40be e99c 143d a8ec 0fbd
00000250: 0ee3 9d3e 8bb0 cfbd c5bb 813d 38a0 5dbe
00000260: f079 4ebe da27 c13d adf4 7a3e 8e72 1fbd
00000270: 9c55 8bbe a54b 5bbe f295 003e cc95 65be
00000280: dd34 443d c8c8 b63d aca7 94be 6f3e 133e
00000290: 94b3 7a3d bb8f fbbd 6632 0b3e 70c5 6c3d
000002a0: 3d2f 453e c814 5fbe cda6 babe fc5f 073c
000002b0: f5bf d03b d6ac 4cbd 2f20 72be b881 79bd
000002c0: 33ae 173d 941b 6a3d 554e 473d 0be9 583c
000002d0: 42f9 173e 71a4 55be 569c a23d 6fd7 92bd
000002e0: a1e9 7abe 6ef3 efbc d2fd 4c3e 878b 153e
000002f0: e032 71be 107a f0bd 8985 713d 82be 7dbe
00000300: be2b a0be 0c4b 54be 8c09 c3bd e097 583d
00000310: 9533 80be 4949 793e 3873 44be dca6 81be
00000320: 7a6f 3fbd 5a84 4b3e 1c9d 7d3c 4f0e 133e
00000330: 332c 0abe 9571 1bbe 189f b9bd ab2f 6abd
00000340: 00de 4ebc e58a a43d 53af 66be ccd7 edbd
00000350: 3fe4 6fbe ec8a 9abe 3700 7a3e 64fb 32be
00000360: 8306 283e fea3 523e c3dc 36be 3546 47be
00000370: 37ee 1fbe 99f1 c3bd 38a0 4f3d 2395 af3c
00000380: 16de f2bd fc97 7c3e 5cd2 42be 57d8 49bd
00000390: 3193 35be fce7 453e ce03 5abd e546 83be
000003a0: 471e a83e f089 be3d 4668 1a3e cf76 393d
000003b0: 8529 fb3d d385 13be 60e2 48be 9ba9 febd
000003c0: 7fef 8fbe 913b e53b 8397 74bd 00e8 1f3c
000003d0: d5ca e03d e448 b1bd 39fb 3e3e 6dcf 7abe
000003e0: 882d 46be 1356 59be 63cf 3ebd 660a 35be
000003f0: 2c82 38be b385 13be 4835 f5bd ca53 333e
0.08749469 -0.09776613 -0.12147576 0.28772914 -0.13633017 -0.033579446 -0.23070408 -0.30426335
-0.047841564 -0.11613635 0.2431357 0.2431001 -0.25568733 -0.13663216 0.108493134 -0.05371896
0.29206526 -0.3721789 -0.08914895 -0.2531199 -0.113147296 -0.31253225 -0.0020477225 -0.16635734
0.01741434 -0.18597482 -0.3084053 0.29562593 0.04471986 0.2528725 0.09713866 0.08371275
-0.17880869 0.048920866 -0.10737146 -0.1572889 -0.050367948 -0.2537589 0.11812154 -0.117645174
-0.16245656 0.28880763 -0.23297179 0.020201325 0.05958934 0.28886476 -0.06911292 -0.16288456
-0.46508232 -0.2794471 -0.062298488 0.062683284 -0.2443028 0.1286097 0.12885259 -0.3207869
0.21176794 -0.104401395 0.26154914 0.25296393 -0.060828216 0.028645685 -0.3573134 0.047229953
-0.2801283 -0.35608923 -0.08116875 -0.20838615 -0.21210396 -0.05696858 0.24710841 -0.24764524
0.049329128 -0.37738252 -0.32476595 0.105173506 0.15526523 -0.10956285 -0.04960084 0.3044672
0.10293625 -0.17324927 -0.2041768 0.10153958 0.118748546 0.050093204 -0.17531678 -0.08369132
0.15896498 0.13798971 -0.1663401 -0.10044034 -0.21730319 0.07507376 -0.05977566 0.20267259
-0.08724692 0.21962363 -0.27905127 -0.053572968 -0.1801111 0.04953969 0.2487927 -0.40974328
0.20120385 -0.22247429 -0.08762674 0.100385875 -0.24495721 -0.1984279 0.17826578 0.33850867
-0.27962348 -0.07307394 -0.056345485 0.30274126 -0.22444026 -0.03886171 0.08926019 0.27835023
-0.11070007 -0.05413342 -0.15964942 0.15526624 -0.09229648 0.17628515 -0.46358916 -0.35449153
-0.15510042 0.13327852 -0.2902786 -0.08676789 0.33722693 0.002615124 0.10499937 -0.27062798
-0.056280654 0.040549777 0.17002878 -0.056525704 -0.3227492 0.25004417 -0.042806227 -0.19487762
-0.034917116 -0.18836573 0.036282454 -0.035137802 0.3083729 -0.10141095 0.06334642 -0.2164315
-0.20163703 0.09431429 0.24507399 -0.038927607 -0.27213752 -0.21415575 0.125572 -0.22420424
0.047901977 0.08925015 -0.29034173 0.14379285 0.061206415 -0.12283274 0.13593444 0.05780548
0.19256301 -0.21785271 -0.36455384 0.008262631 0.0063705393 -0.049969517 -0.2364509 -0.060914725
0.037031364 0.057155207 0.048658688 0.0132391555 0.14841178 -0.2086351 0.07939975 -0.07169997
-0.24503185 -0.029290881 0.200187 0.14604007 -0.23554564 -0.117420316 0.05896524 -0.24779704
-0.31283373 -0.20731753 -0.09523305 0.052879214 -0.25039354 0.24344362 -0.19184577 -0.25322616
-0.04673717 0.19874707 0.015479352 0.14360927 -0.13493423 -0.15180047 -0.09063548 -0.057174366
-0.012626171 0.080343045 -0.22527818 -0.116134256 -0.23426913 -0.30184114 0.24414144 -0.1747871
0.16408734 0.2057037 -0.17857651 -0.19460376 -0.15618216 -0.095675655 0.050689906 0.021433419
-0.11858766 0.24667352 -0.19025558 -0.049278583 -0.1773193 0.19326776 -0.053226285 -0.25640026
0.328356 0.09303653 0.1507884 0.04527932 0.122637786 -0.14406519 -0.19617605 -0.124346934
-0.2811241 0.0069956263 -0.059714805 0.009759903 0.10976187 -0.08656481 0.18650521 -0.24493189
-0.19353306 -0.21224241 -0.046584498 -0.17679748 -0.18018407 -0.14406471 -0.11973053 0.17512432
